…
The val_loss (or test loss) is the same for models 1 and 3, and the loss (or train loss) is also the same for the two models. This means that the dropout layer did not do much change
On the other hand, there is a decrease in both the val_loss and loss values for model 2(with the normalization layer), where the value are always below the values for model 1 and 3(which are above 14.56 for the val_loss) at values around the 2 level.
So, a normalization layer is useful in reducing error.


The summary is shown below:
_________________________________________________________________
Layer (type)                 Output Shape              Param #   
=================================================================
conv2d_29 (Conv2D)           (None, 15, 15, 32)        896       
_________________________________________________________________
dropout_5 (Dropout)          (None, 15, 15, 32)        0         
_________________________________________________________________
max_pooling2d_15 (MaxPooling (None, 14, 14, 32)        0         
_________________________________________________________________
conv2d_30 (Conv2D)           (None, 12, 12, 64)        18496     
_________________________________________________________________
flatten_15 (Flatten)         (None, 9216)              0         
_________________________________________________________________
dense_29 (Dense)             (None, 1000)              9217000   
_________________________________________________________________
dense_30 (Dense)             (None, 10)                10010     
=================================================================
Total params: 9,246,402
Trainable params: 9,246,402
Non-trainable params: 0
_________________________________________________________________
None

